chatbot/chatdata.pth (torch, 4754 bytes, 6 tensors)

l1.weight f4 [8, 37]
0	0x3ef0105d	0.46887484
1	0xbdb3f2e2	-0.087865606
2	0xbe3b8111	-0.18310954
3	0x3e5170df	0.20453213
4	0xbe1d36c7	-0.15352927
5	0x3f05a9a8	0.52212
6	0x3f54c3f8	0.83111525
7	0x3ec81fe0	0.3908682
8	0xbee653f0	-0.44985914
9	0xbe6c56ae	-0.2307994
10	0x3ed670e1	0.41882995
11	0x3f57c1de	0.8428019
12	0xbdc0c84b	-0.09413203
13	0x3ec992c2	0.3936978
14	0x3e41ee5a	0.1893858
15	0x3eeb7aed	0.45992222
16	0x3ef92ba8	0.4866612
17	0x3f05ba44	0.52237344
18	0x3ee93780	0.45550156
19	0xbe99c5e8	-0.30033803
20	0xbc76ebab	-0.015070836
21	0xbee81728	-0.45330167
22	0x3f1aaae3	0.60417
23	0x3e353982	0.17697719
24	0xbecb91ce	-0.39759678
25	0x3d27896f	0.04090255
26	0x3f1bf34f	0.60918134
27	0xbe21827f	-0.15772437
28	0x3db0234f	0.086004846
29	0xbe9ab52c	-0.30216348
30	0x3e5a5de2	0.21324876
31	0x3eba0c78	0.36337638
32	0x3e8c1f38	0.27367568
33	0xbcadc34a	-0.021211285
34	0xbe030725	-0.12795694
35	0xbed35ead	-0.4128317
36	0x3ead6ec0	0.33873558
37	0xbe8bc63a	-0.27299672
38	0x3f24dc5d	0.6439875
39	0xbe945037	-0.2896745
40	0x3ecd6a4b	0.40120158
41	0xbed34425	-0.41262928
42	0x3ebe9297	0.37221214
43	0xbeefffb8	-0.46874785
44	0x3eb1e3ff	0.3474426
45	0x3f0d36ce	0.5516175
46	0x3f32d572	0.6985694
47	0x3eba6bf8	0.364105
48	0xbef2c0a3	-0.47412595
49	0x3e32bc27	0.17454587
50	0x3eef3ed9	0.46727636
51	0x3e5e0af9	0.21683873
52	0x3eeb96b9	0.4601343
53	0x3f113ff4	0.5673821
54	0x3f0d62a4	0.5522864
55	0x3e7d7f98	0.24755704
56	0x3f44efa5	0.7692817
57	0x3f013e6b	0.5048587
58	0x3eca626b	0.39528212
59	0xbe92f4cd	-0.28702393
60	0xbd16fa0b	-0.036859553
61	0x3f161015	0.5861829
62	0x3ef32ad8	0.47493625
63	0xbf05180f	-0.51989836
64	0x3f07af8e	0.5300225
65	0x3e83e28e	0.25758785
66	0x3f19982b	0.59997815
67	0x3c8996f7	0.016795618
68	0x3e864c5f	0.26230142
69	0x3e985d48	0.29758668
70	0xbedeb7d4	-0.43499625
71	0x3ed3c8c4	0.4136411
72	0x3ea1351c	0.31485832
73	0x3eb1e8b2	0.34747845
74	0x3f5856c8	0.8450742
75	0x3f00912d	0.5022152
76	0x3f520589	0.82039696
77	0xbe3cedac	-0.1845004
78	0x3f3ce610	0.7378855
79	0xbe9911bd	-0.29896346
80	0xbef9318d	-0.48670617
81	0xbea1d850	-0.31610346
82	0x3ec3def9	0.38256052
83	0x3d0ac802	0.03388215
84	0xbe19792a	-0.14987627
85	0xbefe617b	-0.49683747
86	0x3efd68aa	0.49493915
87	0xbee8de83	-0.45482263
88	0x3f11210b	0.56691045
89	0xbeef352b	-0.4672025
90	0xbeb3ef3e	-0.35143465
91	0xbe83fb9c	-0.257779
92	0xbe93b9a8	-0.28852582
93	0x3d841c4a	0.06450708
94	0x3e6ce157	0.23132835
95	0x3e5a50b0	0.21319842
96	0xbed3819d	-0.41309825
97	0x3eece1f3	0.46266136
98	0x3f503acf	0.81339735
99	0x3ea1ea5a	0.3162411
100	0xbec2cfe3	-0.3804923
101	0x3e8639b0	0.26215887
102	0x3e5ae6ab	0.21377055
103	0x3f365f74	0.712394
104	0x3f897e4b	1.0741667
105	0x3f38abfa	0.72137415
106	0x3c922c72	0.017843459
107	0x3f63c41a	0.889711
108	0x3eb88d6b	0.36045393
109	0x3f49e6f5	0.7886804
110	0x3eb6eda5	0.35728183
111	0x3f1c80a4	0.6113379
112	0x3e2f785a	0.17135754
113	0x3d81264a	0.06306131
114	0xbe2573b1	-0.16157414
115	0xbdf82e45	-0.121182
116	0xbea0d787	-0.31414434
117	0x3ec9f9b4	0.3944832
118	0xbea09f31	-0.31371453
119	0xbdbd88d3	-0.09254613
120	0x3d66d5c4	0.056356207
121	0xbe546e09	-0.207451
122	0x3f01fd24	0.50776887
123	0x3e1eb4ee	0.15498707
124	0xbf0236cb	-0.5086486
125	0x3f12013d	0.5703314
126	0xbefd55b0	-0.49479437
127	0xbf012d64	-0.50459886
128	0xbee1a471	-0.4407077
129	0xbdf92afa	-0.121664
130	0xbdfe14c6	-0.12406306
131	0x3d8ac693	0.06776156
132	0xbdbb303e	-0.09140061
133	0xbe04541a	-0.12922707
134	0x3ee3ce63	0.44493398
135	0xbeb2a07a	-0.3488806
136	0x3e4fa9f6	0.20279679
137	0x3dcc82a6	0.09985857
138	0xbddac288	-0.10681635
139	0x3e847adc	0.25874984
140	0xbe70e31c	-0.23524135
141	0x3fab9481	1.3404695
142	0x3f229286	0.6350483
143	0xbe52b687	-0.20577441
144	0x3c00b8fe	0.007856606
145	0x3e48001e	0.19531295
146	0xbe048d24	-0.12944466
147	0x3ecd69d5	0.40119806
148	0xbe471a59	-0.19443645
149	0xbe384904	-0.17996603
150	0x3d3f962c	0.046774074
151	0xbdde17a2	-0.10844351
152	0xbd9c9c0d	-0.07646952
153	0xbe186552	-0.148824
154	0xbdefd8b6	-0.11711256
155	0xbde2aedc	-0.11068508
156	0x3e146d78	0.14494884
157	0x3e02c9e4	0.12772328
158	0xbc9015e8	-0.01758857
159	0xbe21e251	-0.15808989
160	0x3ecee6dc	0.40410507
161	0xbdd44c3a	-0.103661016
162	0x3d0fa634	0.035070613
163	0xbdabe18d	-0.0839263
164	0xbdabdf15	-0.08392159
165	0xbe22a4c1	-0.15883161
166	0xbd9cac0a	-0.07650001
167	0xbdedae62	-0.116055265
168	0x3f0170e5	0.5056289
169	0xbe2b3e4a	-0.1672298
170	0x3dd111bc	0.10208461
171	0x3a384300	0.0007029027
172	0xbe3f9248	-0.18708146
173	0x3e865c92	0.262425
174	0x3d66d057	0.056351032
175	0xbe0029f9	-0.12516011
176	0x3f03f728	0.51549006
177	0x3dcbc3ad	0.099494316
178	0xbea315f1	-0.31852677
179	0x3d9a9ba5	0.07549218
180	0xbe0b244b	-0.13588063
181	0xbe0ec2c8	-0.1394149
182	0x3f048589	0.5176626
183	0x3f2569be	0.64614475
184	0x3e7026e6	0.23452339
185	0x3f2416f9	0.64097553
186	0xbe5ced38	-0.21574867
187	0xbe182633	-0.14858322
188	0xbe2a1b3d	-0.16611953
189	0xbdf15940	-0.11784601
190	0xbe3526ca	-0.17690578
191	0x3f363ba4	0.71184754
192	0xbe634a0a	-0.22196212
193	0x3deb0732	0.11475982
194	0xbe2f9e94	-0.17150337
195	0xbe8ed592	-0.27897316
196	0x3f08114f	0.5315141
197	0x3ebed3a7	0.37270853
198	0xbf01028c	-0.5039451
199	0x3eb9359b	0.3617371
200	0xbf01038f	-0.50396055
201	0xbf0105af	-0.503993
202	0xbe980b86	-0.29696292
203	0xbe6ad33f	-0.22932146
204	0xbe8eda4a	-0.27900916
205	0x3e899866	0.26874083
206	0xbec50f86	-0.38488406
207	0x3ef89db5	0.4855782
208	0x3f02cb01	0.5109101
209	0xbe486ca7	-0.19572698
210	0x3ed8c695	0.42339006
211	0x3f00f12c	0.50368
212	0x3d917843	0.07103016
213	0x3eba4abb	0.3638514
214	0xbe56d32d	-0.20978995
215	0x3f6f3cc4	0.93452096
216	0x3ea00992	0.31257302
217	0xbddebf26	-0.108763024
218	0x39410c00	0.00018410385
219	0x3ee46ac1	0.44612697
220	0x3ec0b301	0.3763657
221	0x3e859a74	0.260944
222	0xbe9d7747	-0.30755064
223	0xbd0190c0	-0.031632185
224	0x3e186e85	0.1488591
225	0x3ed78d67	0.4210007
226	0x3ddf9ecd	0.10918961
227	0x3e8194e5	0.2530891
228	0x3edb0751	0.4277902
229	0x3eaaadfa	0.3333586
230	0x3e5a8d58	0.21342981
231	0xbe77fda8	-0.24217856
232	0x3f185555	0.59505206
233	0x3e9641db	0.2934712
234	0x3ebde00b	0.37084994
235	0x3eb634b7	0.35587093
236	0xbe46fa1e	-0.1943135
237	0x3f08ffab	0.5351512
238	0x3f2b8e43	0.6701395
239	0x3e837e2e	0.25682205
240	0x3ef65af1	0.48116258
241	0xbe76ba07	-0.24094401
242	0x3dbb9a4a	0.09160288
243	0xbe44960f	-0.19197868
244	0x3e9504d2	0.2910524
245	0xbce05d36	-0.027388196
246	0x3de10bf4	0.10988608
247	0x3d90cf36	0.07070772
248	0x3f099997	0.53749985
249	0xbdae8b4a	-0.08522661
250	0x3e0b7805	0.13620003
251	0xbc479a8b	-0.012182842
252	0xbf525869	-0.82166153
253	0xbea3bd51	-0.31980374
254	0x3ead6afb	0.33870682
255	0x3ec7c790	0.39019442

l1.bias f4 [8]
0	0x3f8b3e35	1.0878359
1	0x3ef2c321	0.47414497
2	0x3efe5dbe	0.49680895
3	0x3f096519	0.5366989
4	0x3dabcccc	0.08388671
5	0x3f01068c	0.50400615
6	0x3f5257dd	0.8216532
7	0xbe214e43	-0.1575251

l2.weight f4 [8, 8]
0	0xbeacb574	-0.33732188
1	0x3f9468fa	1.1594536
2	0x3fb03789	1.3766948
3	0x3eda2347	0.4260504
4	0x3ec7be05	0.3901216
5	0x3ee2c72a	0.44292575
6	0xbed5cb18	-0.4175651
7	0x3e24a88a	0.16079918
8	0x3f5c9a95	0.86173373
9	0xbf844ead	-1.033651
10	0x3e764f75	0.24053748
11	0x3f860c3e	1.0472486
12	0xbf0ba412	-0.54547226
13	0x3f56b9c6	0.8387722
14	0xbf0f57bb	-0.5599324
15	0x3e92510d	0.28577462
16	0x3ea1ad41	0.31577495
17	0x3fb52f2a	1.4155018
18	0xbf15684e	-0.5836228
19	0xbee17001	-0.44030765
20	0xbf292435	-0.6607087
21	0xbf89f73c	-1.0778575
22	0x3f56c6a7	0.8389687
23	0x3e920953	0.2852274
24	0x3fa345b7	1.275565
25	0xbf34358f	-0.70394224
26	0x3e56b197	0.20966183
27	0x3d028dc7	0.03187349
28	0x3ed665fc	0.41874683
29	0x3f6e3af7	0.93058723
30	0x3faa4de9	1.3305026
31	0x3e46534a	0.1936771
32	0x3f9b8288	1.214921
33	0x3d346e05	0.044050235
34	0xbf245ea4	-0.6420691
35	0xbecf7b6f	-0.4052386
36	0xbe8e0397	-0.27737114
37	0xbe8ff3d7	-0.28115723
38	0x3fa6ce72	1.3031752
39	0xbe40f44d	-0.18843193
40	0x3ea113ee	0.31460518
41	0x3f8f83da	1.1212113
42	0xbe851877	-0.25995228
43	0xbea55858	-0.32293963
44	0xbf248e02	-0.64279187
45	0xbf603104	-0.8757479
46	0x3e183176	0.14862618
47	0xbe1aaf13	-0.15105848
48	0xbdec9b58	-0.11553067
49	0xbe0b57bf	-0.13607691
50	0xbe83d7ad	-0.25750485
51	0xbdb044b8	-0.08606857
52	0xbe801025	-0.25012317
53	0x3e5cb438	0.21553123
54	0xbeb027e9	-0.3440545
55	0xbd95eb98	-0.073203266
56	0xbe55f19b	-0.20892946
57	0x3e2d3fca	0.16918865
58	0xbea291cf	-0.31751868
59	0x3df2d56c	0.11857113
60	0x3d528e20	0.051405072
61	0xbdff9ffe	-0.12481688
62	0x3e3c9b1a	0.18418542
63	0x3eb4b709	0.35295895

l2.bias f4 [8]
0	0x3e5a55df	0.2132182
1	0x3ea1e6eb	0.3162149
2	0x3f0bb23d	0.54568845
3	0x3f4294e5	0.76008445
4	0x3f123fd4	0.57128644
5	0x3f06444f	0.5244798
6	0xbc9c39b5	-0.019070486
7	0xbeb441f6	-0.35206574

l3.weight f4 [5, 8]
0	0x3edc7c66	0.43063658
1	0xbf770059	-0.96484905
2	0x3ef80695	0.48442522
3	0xbf934e75	-1.1508318
4	0xbf0fd682	-0.5618669
5	0x3f256559	0.6460777
6	0x3c86f0ce	0.016472246
7	0x3dc7c184	0.09753707
8	0xbfdc2184	-1.7197728
9	0x3ed70c0b	0.42001376
10	0xbf471078	-0.77759504
11	0x3f0d804a	0.5527388
12	0x3ea8bc82	0.3295632
13	0xbf295d2a	-0.6615778
14	0xbe8eb022	-0.27868754
15	0xbeb27d35	-0.3486115
16	0xbf662b52	-0.8990985
17	0xbf8b5084	-1.0883946
18	0x3f2b89a5	0.67006904
19	0x3d36969e	0.044577233
20	0x3ef318d9	0.47479895
21	0x3f1450e9	0.5793596
22	0xbe911a59	-0.28340414
23	0x3e9e1559	0.30875662
24	0x3f3d594e	0.73964393
25	0xbfd814ea	-1.6881382
26	0xbf940fe7	-1.1567353
27	0x3e21198e	0.15732405
28	0xbeb66f0d	-0.356316
29	0xbf05ba1d	-0.5223711
30	0x3eabde55	0.33568063
31	0x3e8dc043	0.27685747
32	0xbc201da7	-0.009772695
33	0x3f43e2f0	0.76518154
34	0xbf85a655	-1.0441386
35	0xbe195b0e	-0.14976141
36	0xbee26e58	-0.4422481
37	0xbf192e3d	-0.5983618
38	0x3e2f48e2	0.17117646
39	0xbd9098e8	-0.070604146

l3.bias f4 [5]
0	0xbe19bda3	-0.15013747
1	0x3dc6e538	0.09711689
2	0x3e50d3c3	0.2039328
3	0x3eac8d7c	0.33701694
4	0x3dcb5f33	0.09930267
